# Ultralytics 🚀 AGPL-3.0 License - https://ultralytics.com/license

# Ultralytics YOLOv8-pose keypoints/pose estimation model with P3/8 - P5/32 outputs
# Model docs: https://docs.ultralytics.com/models/yolov8
# Task docs: https://docs.ultralytics.com/tasks/pose

# Parameters
nc: 12 # number of classes
kpt_shape: [19, 3] # number of keypoints, number of dims (2 for x,y or 3 for x,y,visible)
reg_max: 1
scales: # model compound scaling constants, i.e. 'model=yolov8n-pose.yaml' will call yolov8-pose.yaml with scale 'n'
  # [depth, width, max_channels]
  n: [0.33, 0.25, 1024]
  s: [0.33, 0.50, 1024]
  m: [0.67, 0.75, 768]
  l: [1.00, 1.00, 512]
  x: [1.00, 1.25, 512]

# YOLOv8.0n backbone
backbone:
  # [from, repeats, module, args]
  - [-1, 1, Conv, [64, 3, 2]] # 0-P1/2
  - [-1, 1, Conv, [128, 3, 2]] # 1-P2/4
  - [-1, 3, C2f, [128, True]]
  - [-1, 1, Conv, [256, 3, 2]] # 3-P3/8
  - [-1, 6, C2f, [256, True]]
  - [-1, 1, Conv, [384, 3, 2]] # 5-P4/16
  - [-1, 6, C2f, [384, True]]
  - [-1, 1, Conv, [768, 3, 2]] # 7-P5/32
  - [-1, 3, C2f, [768, True]]
  # - [-1, 1, SPPF, [1024, 5]] # 9

# YOLOv8.0n head
head:
  - [-1, 1, nn.Upsample, [None, 2, "nearest"]]
  - [[-1, 6], 1, Concat, [1]] # cat backbone P4
  - [-1, 3, C2f, [384]] # 11

  - [-1, 1, nn.Upsample, [None, 2, "nearest"]]
  - [[-1, 4], 1, Concat, [1]] # cat backbone P3
  - [-1, 3, C2f, [256]] # 14 (P3/8-small)

  - [-1, 1, Conv, [256, 3, 2]]
  - [[-1, 11], 1, Concat, [1]] # cat head P4
  - [-1, 3, C2f, [384]] # 17 (P4/16-medium)

  - [-1, 1, Conv, [384, 3, 2]]
  - [[-1, 8], 1, Concat, [1]] # cat head P5
  - [-1, 3, C2f, [768]] # 20 (P5/32-large)

  - [[14, 17, 20], 1, MultiHead, [12, ["angle", "pose", "detect", "detect", "angle", "detect", "detect"], [1, 1, 2, 2, 1, 4, 1], kpt_shape, 3]] # Pose(P3, P4, P5)
